oneg/torch_script_models/model.pt (torch, 33893 bytes, 5 tensors)

weight f4 [10, 3, 7, 7]
-0.00018670221 -0.00021507114 -0.00023150895 -0.00018142379 -0.00011586523 -2.688233e-05 3.758277e-05 0.00034628206
0.00015743695 -1.8457542e-05 -0.00017745516 -0.00030477985 -0.00042375637 -0.00049131154 -0.0021186648 -0.002485824
-0.0028448715 -0.0031642502 -0.0034562664 -0.0037076913 -0.0037960312 -0.007919053 -0.008510376 -0.009054037
-0.009520867 -0.009909213 -0.010276423 -0.0103729665 -0.014674769 -0.015523832 -0.016217612 -0.016849067
-0.017370418 -0.017816382 -0.017943515 -0.021428403 -0.022315599 -0.022980124 -0.023555394 -0.024028707
-0.024446659 -0.024524584 -0.029654255 -0.030336944 -0.030751795 -0.03105911 -0.031324334 -0.031552847
-0.031474806 -1.8627878e-05 -1.5714424e-05 -5.0545964e-08 2.9197863e-05 6.493654e-05 8.352264e-05 6.56238e-05
-0.0006892312 -0.00089520414 -0.0010867292 -0.0012685452 -0.001424855 -0.001560092 -0.0016351173 -0.005246284
-0.005682963 -0.0060562463 -0.006374779 -0.0066164164 -0.006768666 -0.0067624142 -0.012625745 -0.013234937
-0.013731045 -0.014129044 -0.014345729 -0.014542256 -0.014369489 -0.019903025 -0.020646926 -0.021208996
-0.021659188 -0.02197356 -0.02218741 -0.022032259 -0.026803069 -0.02741067 -0.027817387 -0.028112521
-0.028302424 -0.028458916 -0.028219204 -0.035671532 -0.03590899 -0.03590828 -0.035788402 -0.035752296
-0.035710506 -0.03533389 0.0018210211 0.0018369319 0.0018270452 0.0017240435 0.0015431868 0.0012604673
0.0010189764 -0.0019450109 -0.0023570624 -0.0028167246 -0.0032787686 -0.003740224 -0.004249317 -0.0045034434
-0.010615995 -0.011343551 -0.012011283 -0.012599043 -0.013095486 -0.013528779 -0.013611477 -0.020532275
-0.021340553 -0.021969255 -0.022545328 -0.023016537 -0.023375764 -0.023308877 -0.028806036 -0.029598145
-0.030226743 -0.030743308 -0.031189037 -0.031583697 -0.031562027 -0.03633368 -0.036830198 -0.03715572
-0.037388198 -0.037640654 -0.037868865 -0.037711836 -0.04458099 -0.044722643 -0.04460362 -0.04441281
-0.044347018 -0.044299424 -0.043949787 -4.1613276e-07 -1.0376873e-06 -8.4773603e-07 -1.7723868e-07 -1.1455153e-06
-9.688649e-07 -2.6221525e-07 -9.022901e-08 -5.519409e-08 -7.7194596e-07 -9.68175e-07 -7.5635235e-08 -9.620259e-07
-6.014718e-08 -6.360439e-08 -3.5132942e-08 -2.8303046e-07 -2.940911e-07 -8.597578e-08 -5.5553164e-07 -5.579387e-07
-4.7019807e-08 -1.0841027e-07 -1.4772093e-07 -1.331143e-07 -7.684364e-08 -1.9851859e-07 -2.2361931e-07 -1.4488528e-08
-3.6071288e-09 5.024936e-09 -1.4804811e-08 -4.3998696e-08 -9.31886e-09 -4.6050104e-08 -3.4906444e-10 -2.8904196e-10
-2.0008256e-10 -1.0074095e-09 8.04176e-11 2.4313104e-11 -5.706493e-10 1.0511706e-13 -2.5030906e-12 5.726672e-14
-5.684262e-12 -2.6455442e-11 -9.430166e-12 -7.698517e-11 -4.251078e-07 1.04151e-07 -8.745077e-08 -9.797907e-07
-2.0591429e-07 -9.752828e-08 -2.4289557e-07 -3.2484337e-07 -6.925298e-07 -3.8365175e-07 -7.554341e-07 -2.4343242e-07
-1.6180128e-07 5.4905033e-08 3.4049055e-08 1.325474e-08 -1.0808359e-07 -3.8480533e-07 -2.5288426e-07 1.749072e-08
-1.5226024e-07 2.3037698e-09 -7.84302e-09 -8.435596e-08 1.1442495e-08 1.7905489e-08 -6.7277156e-08 -7.5078724e-08
-3.865943e-09 -5.0335935e-09 -3.8303316e-09 -3.2813958e-09 -3.106464e-09 -2.5932453e-08 -1.7664833e-08 -8.624401e-12
-4.0716874e-11 6.597293e-11 1.095587e-10 -2.5583918e-10 -1.2299867e-09 -1.5235468e-09 -1.28491e-13 -1.3272e-13
6.149663e-14 -1.2723411e-12 -2.0524843e-12 -2.183604e-12 -5.1716695e-12 1.849517e-09 1.0756785e-08 7.4190556e-09
8.969555e-09 -6.468489e-08 -4.496815e-08 -3.7209297e-08 -1.0923854e-08 -4.3015472e-08 -7.63812e-09 -4.482475e-08
00000000: 7ec5 43b9 b884 61b9 36c1 72b9 943c 3eb9
00000010: acfc f2b8 5d81 e1b7 31a2 1d38 318d b539
00000020: a915 2539 45d5 9ab7 4213 3ab9 dcca 9fb9
00000030: 9e2b deb9 5ccb 00ba 4cd9 0abb 35e9 22bb
00000040: 0671 3abb 4f5f 4fbb 8782 62bb bdfc 72bb
00000050: d6c6 78bb eabe 01bc 1b6f 0bbc 6257 14bc
00000060: 69fd 1bbc 405a 22bc 715e 28bc 60f3 29bc
00000070: 716e 70bc ac57 7ebc ccda 84bc 0e07 8abc
00000080: 684c 8ebc a9f3 91bc 47fe 92bc 9e8a afbc
00000090: 34cf b6bc d040 bcbc 3ef7 c0bc dad7 c4bc
000000a0: 5c44 c8bc c8e7 c8bc 7bed f2bc 2f85 f8bc
000000b0: 30eb fbbc ad6f febc f24d 00bd 8f3d 01bd
000000c0: baeb 00bd 1043 9cb7 78d2 83b7 e017 59b3
000000d0: efed f437 8a2e 8838 e028 af38 829f 8938
000000e0: 86ad 34ba 22ac 6aba 9570 8eba 5045 a6ba
000000f0: 33c2 baba 007c ccba 6f51 d6ba 05e9 abbb
00000100: 2638 babb 7a73 c6bb 86e3 d0bb 86ce d8bb
00000110: b0cb ddbb 3e97 ddbb 36dc 4ebc 59d7 58bc
00000120: 2df8 60bc 817d 67bc 590a 6bbc a442 6ebc
00000130: 016e 6bbc ab0b a3bc be23 a9bc 7dbe adbc
00000140: 9c6e b1bc e501 b4bc 5fc2 b5bc ff7c b4bc
00000150: 1c92 dbbc 578c e0bc 4ae1 e3bc 3b4c e6bc
00000160: 7cda e7bc ac22 e9bc f62b e7bc 501c 12bd
00000170: 4e15 13bd 9014 13bd dc96 12bd 0071 12bd
00000180: 2e45 12bd 45ba 10bd 54af ee3a 35c5 f03a
00000190: 7779 ef3a 4df9 e13a c244 ca3a 4436 a53a
000001a0: 2d8f 853a bcef feba f278 1abb cc98 38bb
000001b0: 9ce0 56bb 8c1e 75bb db3d 8bbb 9f91 93bb
000001c0: b6ee 2dbc 4dda 39bc f9ca 44bc 376c 4ebc
000001d0: 738e 56bc d0a7 5dbc ac02 5fbc 4d33 a8bc
000001e0: 62d2 aebc def8 b3bc fbb0 b8bc 2d8d bcbc
000001f0: 887e bfbc 42f2 bebc a3fa ebbc cf77 f2bc
00000200: 139e f7bc 64d9 fbbc 2780 ffbc e85d 01bd
00000210: 2f47 01bd a0d2 14bd 43db 16bd 9930 18bd
00000220: 5e24 19bd 162d 1abd 621c 1bbd ba77 1abd
00000230: 8e9a 36bd 172f 37bd 49b2 36bd 35ea 35bd
00000240: 38a5 35bd 5073 35bd b104 34bd da68 dfb4
00000250: aa46 8bb5 fa8f 63b5 ff4e 3eb4 9bbf 99b5
00000260: f209 82b5 97c6 8cb4 ecc3 c1b3 8b0e 6db3
00000270: b937 4fb5 3df2 81b5 e96c a2b3 f51e 81b5
00000280: 432a 81b3 e296 88b3 14e5 16b3 69f3 97b4
00000290: 93e3 9db4 afa1 b8b3 d81f 15b5 41c5 15b5
000002a0: d3f2 49b3 2dcf e8b3 389d 1eb4 2eee 0eb4
000002b0: 3d05 a5b3 6028 55b4 021c 70b4 38e9 78b2
000002c0: 48e1 77b1 cea7 ac31 3f58 7eb2 14f9 3cb3
000002d0: c818 20b2 a0c8 45b3 74e6 bfaf 0ae7 9eaf
000002e0: 3cfe 5baf 1275 8ab0 16d7 b02e 3edc d52d
000002f0: e0db 1cb0 dcb3 ec29 ac23 30ac 04f4 8029
00000300: 48ff c7ac 5cb4 e8ad b1e5 25ad cc4a a9ae
00000310: 5f3a e4b4 9ea9 df33 92cc bbb3 5a81 83b5
00000320: 4a19 5db4 bd70 d1b3 5067 82b4 2266 aeb4
00000330: 49e6 39b5 b2f8 cdb4 09c9 4ab5 19b1 82b4
00000340: 99bb 2db4 b9d0 6b33 553d 1233 f7b6 6332
00000350: 951b e8b3 3e97 ceb4 26c4 87b4 803e 9632
00000360: fa7c 23b4 5950 1e31 f7bd 06b2 2e27 b5b3
00000370: a094 4432 96ce 9932 027a 90b3 f73a a1b3
00000380: 32d5 84b1 f5f3 acb1 f49b 83b1 ed7e 61b1
00000390: 7e79 55b1 11c2 deb2 61bd 97b2 d9b8 17ad
000003a0: 2013 33ae 7513 912e 11ec f02e 2aa6 8caf
000003b0: 4f0c a9b0 0a65 d1b0 02ab 10aa ef6d 15aa
000003c0: 657a 8a29 eb10 b3ab 456e 10ac 50a8 19ac
000003d0: 42f6 b5ac 1832 fe30 d7cc 3832 b4ea fe31
000003e0: 8518 1a32 e5e8 8ab3 0123 41b3 0ed0 1fb3
000003f0: 9eab 3bb2 03c0 38b3 cf38 03b2 5585 40b3

bias f4 [10]
-0.105431475 -1.6089085e-17 0.56265473 -1.7241287e-06 -0.24993874 0.6921827 -1.2241705e-06 0.5162762
1.5468884 -0.006236591
00000000: 75ec d7bd 4765 94a3 240a 103f 9c68 e7b5
00000010: f1ef 7fbe e332 313f 2e4e a4b5 ad2a 043f
00000020: 7000 c63f 515c ccbb

weight f4 [10, 10, 7, 7]
-0.0004823347 -0.00020907189 -0.0009971192 -0.00019918439 -0.00018141369 -0.0002564731 -0.0006679034 -0.00010876804
-0.0005298409 -0.00044621882 -0.00057845504 -0.00022311044 -0.00036480703 -0.00039923095 -5.984268e-05 -0.00015848617
-0.00015663997 -0.0002108926 -3.9953804e-05 -0.00024497442 -5.6610726e-05 -1.659428e-05 -3.218424e-05 -2.0646683e-05
-3.1667787e-05 -6.2599654e-05 -1.147133e-05 -6.864259e-05 2.7196772e-06 2.1856292e-06 -4.59462e-07 -5.655008e-07
-3.161493e-06 -4.4985877e-06 -4.1458034e-06 3.9154525e-06 4.014144e-06 4.1064645e-06 4.1036014e-06 4.1405087e-06
4.1154294e-06 4.230384e-06 3.618039e-06 3.7998825e-06 3.9658894e-06 4.124416e-06 4.259368e-06 4.3862196e-06
4.51546e-06 -1.03948274e-10 -1.0066816e-09 -2.3458107e-09 -2.1059505e-09 -5.5727756e-09 -4.4053103e-09 -4.848947e-09
-1.5614073e-13 -1.3264056e-12 -5.4739473e-12 -6.2648294e-12 -6.753055e-11 -9.7855855e-11 -1.78281e-10 -1.4125065e-19
2.3074575e-19 1.6262627e-17 -1.0040758e-16 -3.4031518e-15 -1.2244121e-14 -7.4027786e-14 1.0390955e-25 6.2335696e-27
-9.218541e-25 2.8187906e-23 -5.522645e-22 2.7833103e-21 1.5612291e-21 5.587143e-29 1.1926227e-28 -7.921593e-28
1.4739637e-27 -7.999017e-27 2.932931e-26 -8.3466587e-26 -3.7675405e-32 -1.1130826e-30 1.7522528e-31 8.247815e-31
-8.177268e-31 -1.0056183e-30 3.1563255e-31 1.4916062e-32 -5.1439974e-33 -3.756127e-32 5.5681243e-33 1.5010696e-35
-8.61558e-33 -1.0626622e-32 0.036518116 0.039021373 0.03404435 0.031779807 0.030583873 0.03079389
0.02849357 0.034216393 0.033836905 0.032162447 0.028200492 0.026974805 0.022340795 0.018798877
-0.008930734 -0.007377922 -0.006837248 -0.009192261 -0.0089829 -0.00795121 -0.0077683926 0.0022691838
0.0032384824 0.003427146 0.003160119 0.0036762098 0.0041643404 0.0053391918 0.01668707 0.01573372
0.014588873 0.013754025 0.013704903 0.0138671985 0.01558783 0.016106356 0.015302458 0.014472093
0.012941643 0.011440422 0.009808961 0.008317464 0.023172986 0.021120874 0.01944735 0.016944442
0.015103607 0.012138934 0.009874316 -1.4073944e-34 -3.0138224e-34 -3.4534725e-34 1.3337526e-34 2.4780546e-34
-5.056764e-34 -4.594817e-35 2.164213e-34 4.3669735e-34 -4.6275287e-34 -2.1463326e-34 5.990737e-35 -1.7540538e-34
2.597967e-34 8.46392e-35 -6.8954384e-35 -2.6389178e-34 2.8719389e-34 1.2842533e-34 -4.6803295e-34 8.246528e-35
-1.0221959e-34 1.2314504e-34 -7.453977e-35 -1.2154043e-34 4.0195295e-35 -1.860771e-07 1.6407534e-34 -2.3790844e-34
1.513005e-34 5.9121477e-35 2.5937382e-34 3.926034e-35 1.1059053e-34 4.137515e-34 -1.8795236e-35 -3.5583814e-34
-6.959723e-35 -5.185365e-34 -4.7227713e-35 -2.7006445e-34 -3.1195324e-35 -3.1047274e-34 4.095374e-35 2.5327445e-34
3.596278e-37 -1.8769548e-34 3.404175e-34 -3.5878765e-34 -0.049206205 -0.053932566 -0.05751379 -0.059634633
-0.060991526 -0.0616828 -0.061953224 -0.04012623 -0.043200474 -0.045839895 -0.048633855 -0.05161455
-0.054385684 -0.056739002 -0.0440739 -0.044268034 -0.04470576 -0.045777388 -0.04757542 -0.04939677
-0.051312473 -0.055762034 -0.056901038 -0.057030592 -0.056270055 -0.054283503 -0.050406743 -0.045375954
-0.03749217 -0.037330605 -0.034574308 -0.030753892 -0.026726425 -0.022323305 -0.018446214 -0.00984731
-0.009673309 -0.00841264 -0.007012964 -0.00523419 -0.0033164623 -0.002137398 0.016806725 0.019247873
0.020134162 0.019004049 0.016022926 0.012725144 0.009054996 0.0005615954 -0.0050341967 -0.009825675
-0.01286727 -0.015672462 -0.017740928 -0.019325627 0.008650614 0.002462112 -0.002401282 -0.006013829
00000000: dee1 fcb9 4f3a 5bb9 c5b1 82ba 27dc 50b9
00000010: de39 3eb9 3d77 86b9 3d16 2fba 661a e4b8
00000020: 05e5 0aba 7af2 e9b9 76a3 17ba c1f2 69b9
00000030: 9243 bfb9 df4f d1b9 97ff 7ab8 4f2f 26b9
00000040: b93f 24b9 0d23 5db9 1294 27b8 e96f 80b9
00000050: 4e71 6db8 f233 8bb7 91fd 06b8 6a32 adb7
00000060: 07d3 04b8 ef47 83b8 fd74 40b7 36f4 8fb8
00000070: b383 3636 d3ac 1236 faab f6b4 ebcc 17b5
00000080: 092a 54b6 93f2 96b6 2e1c 8bb6 7b61 8336
00000090: 3cb1 8636 43ca 8936 abb1 8936 b3ee 8a36
000000a0: 4517 8a36 b9f2 8d36 70cd 7236 7c01 7f36
000000b0: bb12 8536 7764 8a36 b1eb 8e36 572d 9336
000000c0: 8283 9736 ad95 e4ae 765b 8ab0 f033 21b1
000000d0: 46b8 10b1 a77a bfb1 855d 97b1 ca9b a6b1
000000e0: 80cc 2faa ccac baab ef98 c0ac 916c dcac
000000f0: 5280 94ae f32f d7ae a405 44af 64c2 26a0
00000100: 5035 8820 0bff 9523 2c86 e7a4 1239 75a7
00000110: 0b92 5ca8 1db2 a6a9 40a2 0016 e8ef f613
00000120: 67a6 8e97 f04e 081a 65e9 269c 0d4d 521d
00000130: 20ed eb1c a2a6 8d10 d22e 1711 990b 7b92
00000140: 128f e912 d66f 1e94 513b 1115 3ca7 ce95
00000150: 349f 438b a49b b48d 9674 630c 15d4 850d
00000160: 0baf 848d c02b a38d 74db cc0c b2e5 9a0a
00000170: 5dac d589 7e07 438b 744a e709 009f 9f05
00000180: 48f0 328a d0b4 5c8a 0594 153d e0d4 1f3d
00000190: 1772 0b3d 8b2b 023d 088b fa3c 7843 fc3c
000001a0: 596b e93c 7d26 0c3d 9198 0a3d c5bc 033d
000001b0: b804 e73c 44fa dc3c 0b04 b73c 1a00 9a3c
000001c0: 3752 12bc 7fc2 f1bb fe0a e0bb 239b 16bc
000001d0: 032d 13bc cb45 02bc 008e febb 96b6 143b
000001e0: b83c 543b f899 603b 001a 4f3b 91ec 703b
000001f0: 0575 883b 63f4 ae3b 52b3 883c 01e4 803c
00000200: 2b06 6f3c 9058 613c 888a 603c 3f33 633c
00000210: 1964 7f3c 7af1 833c 29b7 7a3c 5c1c 6d3c
00000220: 2f09 543c 9c70 3b3c c4b5 203c f945 083c
00000230: 46d5 bd3c af05 ad3c 0d50 9f3c 12cf 8a3c
00000240: 1f75 773c 61e2 463c e2c7 213c 2613 3b87
00000250: 884d c887 ca85 e587 4049 3107 eab1 a407
00000260: 310a 2888 684d 7486 2dd6 8f07 1a1e 1108
00000270: a9c6 1988 f5a5 8e87 d842 9f06 5c27 6987
00000280: 1eaa ac07 7402 e106 ec4f b786 dc62 af87
00000290: 82df be07 e0b4 2a07 d787 1b88 f63a db06
000002a0: 86df 0787 16b0 2307 2429 c686 118e 2187
000002b0: 00b7 5506 7ccc 47b4 f217 5a07 061e 9e87
000002c0: e41c 4907 fe2b 9d06 2b62 ac07 68be 5006
000002d0: 0200 1307 167e 0908 80dd c785 b97e ec87
000002e0: 6c05 b986 3550 2c88 081b 7b86 167d b387
000002f0: e0dc 2586 3358 ce87 58bf 5906 6a54 a807
00000300: 00c0 f402 767d 7987 093f e207 8e74 ee87
00000310: 728c 49bd 65e8 5cbd 9493 6bbd 7243 74bd
00000320: 40d2 79bd 1ba7 7cbd aac2 7dbd 675b 24bd
00000330: fbf2 30bd 9dc2 3bbd 4b34 47bd c769 53bd
00000340: 86c3 5ebd 2867 68bd d586 34bd 6652 35bd
00000350: 631d 37bd 1281 3bbd 72de 42bd 4454 4abd
00000360: 072d 52bd bb66 64bd 1011 69bd e998 69bd
00000370: 6e7b 66bd 6158 5ebd 4d77 4ebd 23dc 39bd
00000380: 6491 19bd fae7 18bd ca9d 0dbd 96ef fbbc
00000390: 60f1 dabc 5ddf b6bc 841c 97bc 9d56 21bc
000003a0: cc7c 1ebc 2bd5 09bc 02cd e5bb 9183 abbb
000003b0: 0159 59bb 9713 0cbb 42ae 893c b7ad 9d3c
000003c0: 66f0 a43c 61ae 9b3c 8342 833c 1f7d 503c
000003d0: 685b 143c 0838 133a e7f5 a4bb defb 20bc
000003e0: 3ed1 52bc 8963 80bc 6c55 91bc c750 9ebc
000003f0: 4ebb 0d3c 635b 213b d45e 1dbb a70f c5bb

bias f4 [10]
-0.040182702 -0.16426238 0.519367 0.68545943 -1.047763e-05 -0.0031239055 1.3958325 0.002723116
0.37670675 0.2421061
00000000: 9e96 24bd 6634 28be 3cf5 043f 457a 2f3f
00000010: 14c9 2fb7 70ba 4cbb a4aa b23f 4e76 323b
00000020: b5df c03e a9ea 773e

weight f4 [1, 10, 1, 1]
-0.051224314 0.24591072 -0.44734317 -0.16140817 -0.00066177815 0.0081027495 0.42092258 -0.00831025
-0.15507726 -0.21427158
00000000: 96d0 51bd 05d0 7b3e 2a0a e5be 2f48 25be
00000010: 2e7b 2dba 65c1 043c 2a83 d73e b727 08bc
00000020: 93cc 1ebe 026a 5bbe
