oneg/data/exps/default_exp/model.pt (torch, 18238 bytes, 13 tensors)

conv1.weight f4 [10, 3, 5, 5]
-0.010499058 -0.0103961555 -0.0102096 -0.01051625 -0.010683016 -0.010378413 -0.010249956 -0.010051836
-0.01034354 -0.010514649 -0.010379035 -0.010183264 -0.009949283 -0.010248102 -0.010431487 -0.010507377
-0.010294886 -0.010075574 -0.010354009 -0.010536271 -0.010632024 -0.010410541 -0.010191545 -0.010488749
-0.010667896 -0.01050277 -0.010378733 -0.0101772575 -0.010508724 -0.010690152 -0.0103383055 -0.010185763
-0.00997018 -0.010301454 -0.010480367 -0.010302251 -0.010087267 -0.00983413 -0.010161198 -0.010363898
-0.010396699 -0.010170447 -0.009928181 -0.010239135 -0.010434559 -0.010513647 -0.0102708945 -0.010030726
-0.010359045 -0.010550622 -0.010482174 -0.010367361 -0.010163115 -0.0104859285 -0.010638195 -0.010335395
-0.010196275 -0.010001591 -0.010302663 -0.010468239 -0.010317344 -0.010122387 -0.009886722 -0.010186137
-0.010374919 -0.010436846 -0.010220462 -0.009995334 -0.010277557 -0.010464092 -0.010540085 -0.010319528
-0.01009459 -0.010399321 -0.010570431 -0.004907167 -0.0053432668 -0.006015974 -0.006404349 -0.0040812828
-0.0041704667 -0.00517799 -0.0061195353 -0.005726552 -0.0039692796 -0.0065484643 -0.0073307916 -0.00821828
-0.00770789 -0.0057538333 -0.0047641094 -0.005763701 -0.006827817 -0.005704743 -0.0043143476 -0.00349227
-0.0051920433 -0.00462802 -0.0036230641 -0.0022496497 -0.0031944255 -0.0038003016 -0.0043421206 -0.0048655383
-0.0027767497 -0.0024122305 -0.003620723 -0.0045499336 -0.0041662133 -0.001800989 -0.004715511 -0.0058185956
-0.0067978613 -0.0060497965 -0.0039467546 -0.0031256818 -0.0042493194 -0.0054995287 -0.004165233 -0.0026910193
-0.0029559156 -0.003472066 -0.0034535057 -0.0021996256 -0.000980423 -0.004038607 -0.0053085648 -0.005418501
-0.0059771705 -0.0037776944 -0.003357472 -0.0047100503 -0.0054354034 -0.00463602 -0.0031753646 -0.005527611
-0.007017462 -0.007631529 -0.0068486696 -0.005155223 -0.004010189 -0.005071793 -0.00624459 -0.005037603
-0.003489997 -0.0038218836 -0.003277338 -0.0041039097 -0.003837557 -0.0018333977 -0.12677991 -0.12692873
-0.12823178 -0.12664407 -0.12664893 -0.12534478 -0.12576164 -0.12678744 -0.12494646 -0.12536648
-0.1253768 -0.12550935 -0.12720121 -0.124705225 -0.124997765 -0.12595755 -0.12586163 -0.12732837
-0.12485808 -0.12504263 -0.12763643 -0.12742962 -0.12892587 -0.12672606 -0.1266895 -0.124803446
-0.1248629 -0.12567054 -0.124544926 -0.12470937 -0.12345035 -0.123586245 -0.12465301 -0.1227237
-0.123424314 -0.123515576 -0.12360472 -0.12552027 -0.122702114 -0.12313312 -0.12464728 -0.1242526
-0.12575802 -0.12296746 -0.12335585 -0.12656035 -0.12616844 -0.12768216 -0.12496306 -0.1250053
-0.12679537 -0.1269548 -0.12784702 -0.12668216 -0.12672906 -0.12544724 -0.1257482 -0.12712899
-0.12510885 -0.12549156 -0.12551096 -0.12576617 -0.1273326 -0.12491086 -0.12517452 -0.12621869
-0.12613186 -0.12752213 -0.12510543 -0.12532543 -0.1278183 -0.1276871 -0.1291896 -0.12688254
-0.1268334 -0.0033694326 -0.002900744 -0.004209172 -0.0027190824 -0.0029603096 -0.0019980746 -0.0014362554
-0.0026152248 -0.0012768193 -0.0016459031 -0.0026758842 -0.0020506287 -0.0031940276 -0.0019862242 -0.0025031243
-0.0025571773 -0.002022325 -0.0031647424 -0.0019507724 -0.0024479444 -0.0033377218 -0.0028911985 -0.0040832045
-0.0027998835 -0.0032721963 -0.0026116378 -0.0019332898 -0.00314943 -0.0017498909 -0.0022079123 -0.0010899907
00000000: 3e04 2cbc a354 2abc 2b46 27bc 594c 2cbc
00000010: d107 2fbc 380a 2abc 6eef 27bc 75b0 24bc
00000020: f477 29bc a245 2cbc d40c 2abc b4d7 26bc
00000030: 5102 23bc a8e7 27bc d4e8 2abc 2227 2cbc
00000040: e2ab 28bc 0514 25bc dda3 29bc 53a0 2cbc
00000050: f131 2ebc f990 2abc 70fa 26bc 00d9 2bbc
00000060: 66c8 2ebc cf13 2cbc 900b 2abc 83be 26bc
00000070: c82c 2cbc bf25 2fbc ff61 29bc 30e2 26bc
00000080: f759 23bc 6ec7 28bc d8b5 2bbc c6ca 28bc
00000090: 1045 25bc 551f 21bc 277b 26bc 57cd 29bc
000000a0: eb56 2abc f2a1 26bc cfa9 22bc 0bc2 27bc
000000b0: b6f5 2abc 6f41 2cbc 4147 28bc ea57 24bc
000000c0: fcb8 29bc 84dc 2cbc 6dbd 2bbc dddb 29bc
000000d0: 3283 26bc 2ccd 2bbc d34b 2ebc ca55 29bc
000000e0: 470e 27bc b7dd 23bc 80cc 28bc fa82 2bbc
000000f0: 140a 29bc 5ed8 25bc ebfb 21bc c1e3 26bc
00000100: 90fb 29bc 4eff 2abc ba73 27bc 78c3 23bc
00000110: 3363 28bc 9571 2bbc 52b0 2cbc 3d13 29bc
00000120: c763 25bc ea61 2abc 9a2f 2dbc 4dcc a0bb
00000130: 9216 afbb a621 c5bb 93db d1bb 48bc 85bb
00000140: 69a8 88bb 21ac a9bb 6286 c8bb cda5 bbbb
00000150: bb10 82bb 8094 d6bb 2337 f0bb f7a5 06bc
00000160: 7892 fcbb a78a bcbb 3f1c 9cbb 6edd bcbb
00000170: e1bb dfbb daee babb 5f5f 8dbb 91de 64bb
00000180: 0422 aabb a5a6 97bb ee70 6dbb dc6e 13bb
00000190: 9159 51bb 7b0e 79bb 5948 8ebb 186f 9fbb
000001a0: 21fa 35bb 8316 1ebb a749 6dbb 9c17 95bb
000001b0: bb84 88bb 2a0f ecba 9384 9abb eba9 bebb
000001c0: 98c0 debb 5f3d c6bb c753 81bb 3dd8 4cbb
000001d0: e03d 8bbb 6435 b4bb 827c 88bb d05b 30bb
000001e0: 09b8 41bb 9a8b 63bb 3654 62bb 9827 10bb
000001f0: 8981 80ba 4a56 84bb 78f3 adbb ae8d b1bb
00000200: 24dc c3bb 3293 77bb 0809 5cbb c456 9abb
00000210: 781b b2bb c1e9 97bb c719 50bb f620 b5bb
00000220: bdf2 e5bb e811 fabb ce6a e0bb 25ed a8bb
00000230: e767 83bb 4931 a6bb 6b9f ccbb 7a12 a5bb
00000240: 6fb8 64bb 9178 7abb 9cc8 56bb 177a 86bb
00000250: 867f 7bbb 9e4e f0ba 98d2 01be 9bf9 01be
00000260: 314f 03be fcae 01be 42b0 01be 625a 00be
00000270: a9c7 00be 91d4 01be eee3 ffbd 1260 00be
00000280: c762 00be 8685 00be 0941 02be 7465 ffbd
00000290: d4fe ffbd 04fb 00be dfe1 00be 5e62 02be
000002a0: 98b5 ffbd 2d0b 00be 20b3 02be e97c 02be
000002b0: 2505 04be 7ac4 01be e4ba 01be f398 ffbd
000002c0: 1fb8 ffbd c7af 00be 6911 ffbd a067 ffbd
000002d0: 89d3 fcbd c91a fdbd 144a ffbd 9056 fbbd
000002e0: e3c5 fcbd bcf5 fcbd 7924 fdbd 6388 00be
000002f0: 3f4b fbbd 382d fcbd 1347 ffbd 2678 febd
00000300: b6c6 00be 5dd6 fbbd fea1 fcbd 0999 01be
00000310: 4d32 01be 1dbf 02be a2ec ffbd 6401 00be
00000320: a5d6 01be 7000 02be 54ea 02be f8b8 01be
00000330: 43c5 01be 3e75 00be 23c4 00be 1a2e 02be
00000340: 891c 00be dc80 00be f285 00be d9c8 00be
00000350: 7a63 02be 44d1 ffbd c02d 00be 793f 01be
00000360: b628 01be 2995 02be a31b 00be 4f55 00be
00000370: cde2 02be 68c0 02be 474a 04be 7fed 01be
00000380: 9de0 01be b3d1 5cbb 691a 3ebb 18ed 89bb
00000390: a232 32bb c101 42bb 21f2 02bb bc40 bcba
000003a0: 3164 2bbb f25a a7ba 58bb d7ba e35d 2fbb
000003b0: d763 06bb e452 51bb 502b 02bb 750b 24bb
000003c0: 5196 27bb fc88 04bb 9167 4fbb 0fb1 ffba
000003d0: b16d 20bb aebd 5abb 437a 3dbb 67cc 85bb
000003e0: 407e 37bb 5872 56bb 0328 2bbb 7166 fdba
000003f0: ab66 4ebb 985c e5ba 9fb2 10bb 05de 8eba

conv1.bias f4 [10]
-1.4975399e-10 3.2707255e-06 -4.0725418e-08 -1.51528175e-05 -1.6943535e-06 -3.5912805e-08 -9.723635e-07 7.903117e-08
-2.570746e-06 3.531959e-07
00000000: 00a8 24af a37e 5b36 12ea 2eb3 db38 7eb7
00000010: 8b69 e3b5 8c3e 1ab3 2882 82b5 d8b7 a933
00000020: 1485 2cb6 e09e bd34

conv2.weight f4 [10, 10, 5, 5]
8.790032e-05 7.910673e-05 0.00026231763 5.2294978e-05 6.222267e-05 3.819955e-05 3.0381261e-05 0.0002186954
2.4593846e-06 1.13840815e-05 0.0002672128 0.00025804286 0.00044591696 0.00023167617 0.0002471005 0.00045820946
0.00044782177 0.0006340434 0.0004273473 0.00044338664 0.00054092857 0.0005339002 0.0007154173 0.0005133082
0.0005299714 0.0036941024 0.0034829732 0.0039909366 0.0034148134 0.0037220037 0.0028501411 0.002664321
0.0031668518 0.0025300337 0.0028367343 0.0036532662 0.0034172828 0.003963528 0.0032725397 0.0035497376
0.0049532526 0.004687529 0.0052273497 0.0045187194 0.0047885166 0.0048524435 0.0045579174 0.005089184
0.0043624383 0.0046301275 -0.0049564545 -0.005534469 -0.005154118 -0.0052902466 -0.005407926 -0.006046103
-0.0061506773 -0.0057023223 -0.006189258 -0.00580523 -0.005739633 -0.005986961 -0.0054541975 -0.0058665937
-0.0054483213 -0.0050692097 -0.0053735296 -0.0049957787 -0.005326633 -0.004968412 -0.004805275 -0.0051560234
-0.004818046 -0.004871972 -0.004557462 -0.009893349 -0.010182931 -0.009954339 -0.010279588 -0.009914107
-0.010522332 -0.010790214 -0.0105331065 -0.010885073 -0.010531128 -0.009843161 -0.010137252 -0.009832475
-0.01021481 -0.00988353 -0.008527922 -0.008820267 -0.008486959 -0.008902181 -0.008574918 -0.007965848
-0.008254701 -0.007925193 -0.008339965 -0.0080233235 -0.002277804 -0.0023034741 -0.0023465436 -0.002337072
-0.0022899774 -0.0022901779 -0.0023175026 -0.0023626136 -0.0023565986 -0.0022984867 -0.0022903576 -0.0023246068
-0.002365431 -0.0023594892 -0.0023183422 -0.0022768865 -0.0023097857 -0.0023500675 -0.0023439892 -0.002300268
-0.002262417 -0.0022983071 -0.0023378893 -0.0023378697 -0.0022928754 -0.00015831487 -0.00016509154 2.0831185e-05
-0.00017609436 -0.0001819992 -0.0001931939 -0.00020178383 -1.6114136e-05 -0.00021789699 -0.00021847364 3.3329306e-05
2.977457e-05 0.0002172549 1.6434184e-05 1.588487e-05 0.00022081597 0.000215734 0.00040313174 0.00020859213
0.00020411459 0.00029779598 0.00029533252 0.00048351576 0.00029151008 0.00028811314 -0.00062998553 -0.00070975604
0.00017099353 -0.0008190621 -0.00073549396 -0.0009008878 -0.0009843109 -0.00011342848 -0.0011271882 -0.0010396013
0.00018944731 0.00012893858 0.0009700499 -1.7826766e-05 7.338906e-05 0.0011322363 0.0010855887 0.0018727349
0.0009581833 0.0010294778 0.0015460622 0.0014761107 0.002297788 0.0013506166 0.0014408114 -0.00080212904
-0.0008072943 -0.0005669855 -0.0008480732 -0.0008789532 -0.00079489895 -0.00079203275 -0.0005676707 -0.0008522318
-0.0008747763 -0.0004357541 -0.00043868442 -0.00021503832 -0.00049467164 -0.00051854335 -0.00019222799 -0.00018997502
3.3521424e-05 -0.00024496176 -0.00027215187 -7.489001e-05 -7.451568e-05 0.00014752684 -0.0001297711 -0.00015580092
-0.0016429877 -0.001637529 -0.0015854153 -0.0018243958 -0.001941617 -0.0014569125 -0.0014517996 -0.0013959731
-0.001632726 -0.0017505606 -0.0012028934 -0.0011938473 -0.0011320441 -0.0013781955 -0.0014993183 -0.001149916
-0.0011340965 -0.001089931 -0.0013271217 -0.0014555266 -0.0011427351 -0.0011339015 -0.001079376 -0.0013268252
-0.0014622901 0.00027141714 0.0002571264 0.0005181201 0.00021680997 0.0002318432 0.00018667696 0.00017310782
0.00043680635 0.00013433656 0.00014786316 0.0005294559 0.0005123264 0.0007644853 0.00047201948 0.0004938016
0.0008228958 0.000805651 0.0010567944 0.0007653673 0.0007896647 0.0009465043 0.00093259633 0.0011806882
0.00089637906 0.00092303625 0.07838426 0.0785475 0.07861925 0.07857836 0.07849344 0.07851086
00000000: 2057 b838 1ae6 a538 ad87 8939 4e57 5b38
00000010: 8b7d 8238 7438 2038 43db fe37 9951 6539
00000020: e80b 2536 42fe 3e37 b218 8c39 ed49 8739
00000030: f6c9 e939 19ee 7239 458d 8139 d53b f039
00000040: 9fc9 ea39 ef35 263a 950d e039 5976 e839
00000050: 1acd 0d3a 70f5 0b3a d88a 3b3a 888f 063a
00000060: c7ed 0a3a c118 723b 9842 643b 67c6 823b
00000070: 10cb 5f3b dcec 733b 6fc9 3a3b e49b 2e3b
00000080: f58a 4f3b ecce 253b 81e8 393b a36b 6f3b
00000090: 7ef4 5f3b 7ce0 813b 1b78 563b b7a2 683b
000000a0: e54e a23b d899 993b 304a ab3b c411 943b
000000b0: fde8 9c3b 3f01 9f3b 955a 953b 2bc3 a63b
000000c0: c9f2 8e3b 53b8 973b c169 a2bb 7e5a b5bb
000000d0: e0e3 a8bb ce59 adbb f934 b1bb 631e c6bb
000000e0: 9f8b c9bb 8cda babb 42cf cabb cc39 bebb
000000f0: 8813 bcbb 452e c4bb 20b9 b2bb 8e3c c0bb
00000100: d587 b2bb 9d1b a6bb 6f14 b0bb a1b3 a3bb
00000110: 098b aebb 10ce a2bb 9175 9dbb dcf3 a8bb
00000120: b3e0 9dbb 10a5 9fbb c356 95bb b717 22bc
00000130: 4fd6 26bc 8617 23bc b86b 28bc c76e 22bc
00000140: dc65 2cbc 70c9 30bc 0d93 2cbc 4e57 32bc
00000150: c18a 2cbc 3645 21bc b716 26bc 6418 21bc
00000160: 055c 27bc 88ee 21bc b3b8 0bbc e282 10bc
00000170: e30c 0bbc 74da 11bc d07d 0cbc 3083 02bc
00000180: ba3e 07bc abd8 01bc 59a4 08bc 4274 03bc
00000190: 3647 15bb e2f5 16bb 78c8 19bb 9029 19bb
000001a0: 7213 16bb cf16 16bb 3ee1 17bb 14d6 1abb
000001b0: 2a71 1abb 35a2 16bb d319 16bb 6e58 18bb
000001c0: 5905 1bbb a9a1 1abb 54ef 17bb d137 15bb
000001d0: c65f 17bb 9703 1abb 9d9d 19bb 18c0 16bb
000001e0: 0f45 14bb 329f 16bb 4637 19bb f236 19bb
000001f0: 1144 16bb 5301 26b9 6c1c 2db9 a1be ae37
00000200: f8a5 38b9 0ad7 3eb9 1894 4ab9 ef95 53b9
00000210: d82c 87b7 477b 64b9 1216 65b9 12cb 0b38
00000220: 67c4 f937 ebce 6339 24dc 8937 8040 8537
00000230: d68a 6739 a836 6239 6d5b d339 86b9 5a39
00000240: 9807 5639 8021 9c39 dcd6 9a39 6380 fd39
00000250: d2d5 9839 e40d 9739 9d25 25ba ec0e 3aba
00000260: ba4c 3339 54b6 56ba 2ace 40ba 8f29 6cba
00000270: fe03 81ba 74e0 edb8 29be 93ba 3b43 88ba
00000280: 60a6 4639 b033 0739 f24a 7e3a b08a 95b7
00000290: 74e8 9938 8c67 943a 504a 8e3a 8e76 f53a
000002a0: 982e 7b3a 8bef 863a 3da5 ca3a 0e7a c13a
000002b0: 7c96 163b 2c07 b13a 9cd9 bc3a f845 52ba
000002c0: 9aa0 53ba c1a1 14ba 3b51 5eba 8d69 66ba
000002d0: c460 50ba 6ba0 4fba bccf 14ba 4f68 5fba
000002e0: 3e51 65ba ed75 e4b9 3aff e5b9 e97b 61b9
000002f0: daac 01ba dbee 07ba cf90 49b9 0834 47b9
00000300: 5b99 0c38 366e 80b9 9baf 8eb9 450e 9db8
00000310: 4d45 9cb8 6fb1 1a39 2a13 08b9 7e5e 23b9
00000320: 8559 d7ba 5ba2 d6ba b6cd cfba 9120 efba
00000330: db7d feba dff5 beba 504a beba 16f9 b6ba
00000340: 3201 d6ba 1173 e5ba 68aa 9dba de7a 9cba
00000350: 1961 94ba 91a4 b4ba c684 c4ba c7b8 96ba
00000360: f7a5 94ba 04dc 8eba d1f2 adba 5ec7 beba
00000370: d4c7 95ba 6c9f 94ba d979 8dba dee8 adba
00000380: 50aa bfba fe4c 8e39 ecce 8639 74d2 073a
00000390: 7c57 6339 ef1a 7339 b7be 4339 4784 3539
000003a0: 2803 e539 b2dc 0c39 b70b 1b39 2fcb 0a3a
000003b0: a54d 063a bd67 483a 6279 f739 7772 013a
000003c0: 9ab7 573a 5332 533a 2384 8a3a eea2 483a
000003d0: 8001 4f3a d41e 783a 7b79 743a 52c1 9a3a
000003e0: fbfa 6a3a eaf7 713a ed87 a03d 83dd a03d
000003f0: 2103 a13d b1ed a03d 2bc1 a03d 4dca a03d

conv2.bias f4 [10]
6.000871e-05 -1.4518395e-06 -1.6655762e-05 -1.168579e-05 -0.00017061326 1.2997155e-05 -3.247281e-05 3.453857e-06
-1.3748555e-05 2.6291533e-05
00000000: ddb1 7b38 d3dc c2b5 fab7 8bb7 160e 44b7
00000010: a6e6 32b9 5b0e 5a37 6a33 08b8 d0c8 6736
00000020: 98a9 66b7 a38c dc37

conv3.weight f4 [1, 10, 1, 1]
-0.1883231 -0.71436846 -0.34721178 -0.84520096 -1.0067046 -0.16251719 -0.8030572 -0.4165032
-0.82381696 -0.9522672
00000000: c5d7 40be dae0 36bf bec5 b1be 175f 58bf
00000010: b2db 80bf e86a 26be 2895 4dbf e83f d5be
00000020: abe5 52bf c9c7 73bf

batch_norm1.weight f4 [10]
0.013133253 0.5416923 0.14206025 0.19091782 0.037252646 0.00867868 0.094556265 0.0036870602
0.12349026 0.019006608
00000000: db2c 573c 59ac 0a3f 3e78 113e f67f 433e
00000010: 3b96 183d 0631 0e3c b7a6 c13d 9ba2 713b
00000020: 76e8 fc3d bfb3 9b3c

batch_norm1.bias f4 [10]
0.031317268 -0.07508318 0.018105645 0.118060894 -0.04841079 0.031936564 0.1621201 0.054429963
0.09003377 0.047489103
00000000: 8946 003d 36c5 99bd 4a52 943c e9c9 f13d
00000010: 644a 46bd eacf 023d d002 263e f4f1 5e3d
00000020: a063 b83d ef83 423d

batch_norm1.running_mean f4 [10]
-0.18733814 -0.08710068 -2.14985 -0.033399116 0.021473665 -0.029147288 -0.106088646 -0.020539401
0.03988585 -0.07727171
00000000: 92d5 3fbe d761 b2bd 2497 09c0 83cd 08bd
00000010: 8ae9 af3c 4bc6 eebc 0145 d9bd 3f42 a8bc
00000020: 585f 233d a140 9ebd

batch_norm1.running_var f4 [10]
0.022534193 0.0046777013 2.780159 0.0007531841 0.00030035825 0.0009417111 0.008669594 0.0026794472
0.00092687114 0.00538607
00000000: a199 b83c 6747 993b 20ee 3140 5471 453a
00000010: 6779 9d39 2add 763a ea0a 0e3c aa99 2f3b
00000020: 45f9 723a a17d b03b

batch_norm2.weight f4 [10]
0.5382849 0.5370716 0.5879898 1.178804 1.4021719 0.4948866 1.3541756 0.62901545
1.2488257 1.4584287
00000000: 0acd 093f 867d 093f 8086 163f 0de3 963f
00000010: 5e7a b33f c761 fd3e a055 ad3f 2807 213f
00000020: 85d9 9f3f cbad ba3f

batch_norm2.bias f4 [10]
-0.07056663 1.0183712 0.23892254 0.9273002 0.7999257 -0.104726344 0.8408149 0.36085865
0.995176 0.6939846
00000000: 3d85 90bd fd59 823f 1ca8 743e 8c63 6d3f
00000010: eec7 4c3f c47a d6bd a53f 573f 77c2 b83e
00000020: dbc3 7e3f faa8 313f

batch_norm2.running_mean f4 [10]
-0.032062985 0.49556267 -0.049104147 0.10191802 -0.13175564 -0.030082535 -0.005222414 0.07303425
0.68178296 -0.012375067
00000000: 7a54 03bd 64ba fd3e 6e21 49bd 65ba d03d
00000010: f3ea 06be a66f f6bc c920 abbb fb92 953d
00000020: 5489 2e3f cbc0 4abc

batch_norm2.running_var f4 [10]
0.00033306007 0.2358592 0.0014345458 0.13755585 0.005996374 0.00038939354 0.009495614 0.015844228
0.75317425 0.005996613
00000000: 919e ae39 1385 713e 5f07 bc3a 71db 0c3e
00000010: 3b7d c43b 8427 cc39 7e93 1b3c c1cb 813c
00000020: 07d0 403f 3c7f c43b
