oneg/data/exps/default_exp/model.pt (torch, 28020 bytes, 5 tensors)

conv1.weight f4 [10, 3, 7, 7]
000000 a2 34 bc bc d9 40 82 bc 06 4e 88 bc 82 e6 bb bc
       -0.022974316 -0.015900062 -0.016638767 -0.022937063
000010 6b ca b8 bc 97 9f a6 bc a7 ef 97 bc ad d7 69 bc
       -0.022557458 -0.02033977 -0.018546892 -0.0142726125
000020 93 b9 83 bc 1b 40 64 bc e7 16 a6 bc ce 10 bc bc
       -0.0160797 -0.0139313 -0.020274593 -0.022957232
000030 d1 ff bd bc 28 60 9c bc f2 54 9f bc f8 d2 96 bc
       -0.023193272 -0.01908882 -0.019449685 -0.018411145
000040 c6 d9 87 bc d0 7a c8 bc 4e 39 cf bc 1c 27 d0 bc
       -0.016583335 -0.024472624 -0.02529588 -0.025409274
000050 38 75 95 bc b8 12 9a bc c0 e2 a6 bc b7 73 9b bc
       -0.01824437 -0.018807754 -0.020371795 -0.018976076
000060 cf a1 c1 bc 06 07 a3 bc 6c c1 97 bc 86 96 ca bc
       -0.023636727 -0.01990081 -0.018524848 -0.024729978
000070 f4 9e 86 bc c1 5f c3 bc fd 82 76 bc 47 5f 90 bc
       -0.016433217 -0.02384937 -0.0150458785 -0.017623557
000080 a7 bc 9a bc 97 d2 81 bc 1f 10 a5 bc bb 35 89 bc
       -0.018888785 -0.015847487 -0.020149289 -0.016749253
000090 a7 df c3 bc 60 65 c9 bc bf 92 8a bc 44 19 bd bc
       -0.023910357 -0.024584472 -0.016915677 -0.023083337
0000a0 d5 70 b2 bc 30 64 bb bc c6 5b 81 bc 00 16 d3 bc
       -0.021782318 -0.022874922 -0.015790831 -0.025767326
0000b0 82 07 6d bc 62 9f 9a bc 54 e2 7f bc 29 1a 79 bc
       -0.014467122 -0.018874828 -0.015617926 -0.015203991
0000c0 34 ed 9f bc c8 19 46 bc ae f1 7d bc 9d 04 4d bc
       -0.019522287 -0.012091108 -0.015499515 -0.012513307
0000d0 58 a1 5c bc 1b d4 6a bc a5 26 32 bc bc 14 4f bc
       -0.013466202 -0.014332796 -0.010873471 -0.012639221
0000e0 c7 d3 4f bc 2d 12 2c bc fa a6 54 bc 06 ca 29 bc
       -0.012684769 -0.01050238 -0.012979263 -0.010363108
0000f0 95 36 7f bc ec 61 83 bc 91 d1 66 bc 61 4f 41 bc
       -0.015576978 -0.016037904 -0.01408805 -0.011798711
000100 b1 8e 20 bc 6a 83 8c bc e2 93 36 bc 27 a3 51 bc
       -0.009799645 -0.017152507 -0.011143656 -0.012795246
000110 93 e2 4c bc 0a 01 84 bc 4f 39 2e bc b7 b7 87 bc
       -0.012505191 -0.016113777 -0.010633781 -0.016567094
000120 cb 2a 86 bc 4d 10 38 bc a5 7a 51 bc 1b 13 90 bc
       -0.016377827 -0.011234355 -0.012785588 -0.017587235
000130 3f 84 3f bc a8 7f 22 bc a0 70 64 bc ea c6 7e bc
       -0.011689245 -0.009918131 -0.0139428675 -0.0155503545
000140 29 06 29 bc b7 3e 6a bc 1b e7 7e bc 1e 3e 46 bc
       -0.01031641 -0.014297179 -0.0155580295 -0.012099771
000150 4c 04 2f bc 75 7a 3c bc 15 f1 68 bc 8d 26 50 bc
       -0.010682177 -0.011503805 -0.014217635 -0.012704504
000160 76 7f 70 bc da e8 20 bc 08 dc 6d bc 2a 52 81 bc
       -0.014678827 -0.009821141 -0.014517792 -0.01578625
000170 fe 1d 38 bc 0c 31 80 bc 30 67 6c bc 53 11 5f bc
       -0.011237619 -0.015648387 -0.014428899 -0.01361497
000180 c4 ce 76 bc c7 55 71 bc 39 50 5c bc 5f bf aa bc
       -0.015063945 -0.014729924 -0.013446861 -0.020843206
000190 ab 26 ae bc 47 1c 91 bc d0 ea 87 bc b1 b8 76 bc
       -0.021258673 -0.017713679 -0.01659146 -0.015058682
0001a0 a8 5f 95 bc 3e 5e b6 bc 9e 73 61 bc 4e a9 b1 bc
       -0.018234089 -0.022261735 -0.013760475 -0.021687176
0001b0 59 75 69 bc b0 62 ae bc 19 79 a9 bc db 5c 90 bc
       -0.014249169 -0.021287292 -0.020687627 -0.017622402
0001c0 b5 fe 4d bc 9a db a9 bc 94 63 a8 bc d6 74 9e bc
       -0.012572934 -0.020734597 -0.020555295 -0.019342821
0001d0 fc d6 8f bc 42 35 6f bc 2b a1 6e bc 21 8e 8f bc
       -0.017558567 -0.0146001 -0.014564793 -0.017523827
0001e0 8b b3 86 bc 58 50 6a bc 88 34 96 bc e9 88 a9 bc
       -0.016443035 -0.014301382 -0.018335596 -0.020695167
0001f0 7f 1f b9 bc a3 0e 84 bc 07 28 a7 bc 1a 87 92 bc
       -0.022598026 -0.01612026 -0.020404829 -0.017886687
000200 5b 57 64 bc ae 43 80 bc b4 b1 a7 bc ba 34 af bc
       -0.013936843 -0.015657272 -0.020470478 -0.021387447
000210 c7 f8 aa bc 55 f3 94 bc e2 ba b9 bc 9f 4a 93 bc
       -0.02087058 -0.018182436 -0.02267212 -0.017979918
000220 ef 9f 94 bc 25 df 7c bc 93 a0 58 bc a2 a5 a6 bc
       -0.018142669 -0.015434061 -0.013221878 -0.020342652
000230 2d ba 64 bc 15 c7 47 bc 58 95 62 bc e0 6a 64 bc
       -0.013960403 -0.012193461 -0.013829552 -0.013941497
000240 ba 25 95 bc 36 8c a6 bc c6 24 a1 bc 92 ec 44 b5
       -0.018206466 -0.02033053 -0.019670855 -7.3359945e-07
000250 89 51 48 b5 c3 df 4b b5 43 b7 52 b5 5d 22 58 b5
       -7.4624455e-07 -7.594901e-07 -7.849778e-07 -8.0516276e-07
000260 ef 36 5a b5 d0 cd 5e b5 bb 3e 7c b5 17 db 7b b5
       -8.129127e-07 -8.300094e-07 -9.39686e-07 -9.3823604e-07
000270 9d 21 81 b5 a3 f2 82 b5 ee eb 85 b5 b3 de 82 b5
       -9.621032e-07 -9.756371e-07 -9.977937e-07 -9.750569e-07
000280 09 37 84 b5 26 bd 8c b5 c8 59 8d b5 cc fb 90 b5
       -9.850784e-07 -1.0485862e-06 -1.0531448e-06 -1.0802119e-06
000290 38 6f 92 b5 12 71 94 b5 02 7c 92 b5 ee 4d 94 b5
       -1.0910217e-06 -1.1059767e-06 -1.0913939e-06 -1.104954e-06
0002a0 62 6e 94 b5 ac 61 97 b5 50 4f 9a b5 84 c2 98 b5
       -1.1058985e-06 -1.1278803e-06 -1.1496977e-06 -1.1381494e-06
0002b0 61 bf 9c b5 49 25 9d b5 20 7f 9b b5 ca b4 97 b5
       -1.1678604e-06 -1.1708263e-06 -1.1585398e-06 -1.1302993e-06
0002c0 ed 97 9a b5 fe 69 99 b5 23 81 9d b5 b5 cc 9c b5
       -1.151811e-06 -1.1430236e-06 -1.1734995e-06 -1.1682483e-06
0002d0 60 24 9b b5 18 42 9f b5 5c ab 94 b5 25 98 94 b5
       -1.1558986e-06 -1.1865659e-06 -1.1076731e-06 -1.1071139e-06
0002e0 f6 83 9a b5 a2 22 99 b5 34 f6 9c b5 48 e0 99 b5
       -1.15123e-06 -1.1409468e-06 -1.169456e-06 -1.1464663e-06
0002f0 82 45 98 b5 12 77 8c b5 b0 88 8f b5 6e ec 93 b5
       -1.1345112e-06 -1.0465467e-06 -1.0694112e-06 -1.1021164e-06
000300 08 ae 96 b5 ba d2 95 b5 d6 23 91 b5 c5 9c 92 b5
       -1.1226521e-06 -1.1162695e-06 -1.0813771e-06 -1.0923474e-06
000310 b0 78 da 34 26 20 d9 34 f7 95 d0 34 3e 25 c8 34
       4.0693476e-07 4.044279e-07 3.8852133e-07 3.728e-07
000320 37 dd bd 34 e8 15 b9 34 22 2e b3 34 50 ce 77 34
       3.5364948e-07 3.4474874e-07 3.3374914e-07 2.3078724e-07
000330 b6 d5 76 34 3e a6 64 34 08 a7 4b 34 b4 6d 36 34
       2.2988283e-07 2.1294633e-07 1.8966614e-07 1.698998e-07
000340 a2 6c 33 34 b0 32 2e 34 31 c4 ba 33 9e f0 b3 33
       1.6710194e-07 1.6223453e-07 8.696987e-08 8.379105e-08
000350 56 ab 8a 33 9e b3 28 33 46 b8 08 33 3a af 08 33
       6.4572916e-08 3.927891e-08 3.1832563e-08 3.1824335e-08
000360 f0 5e f9 32 90 a2 b6 31 18 5a 00 b2 8a 14 09 b3
       2.9030588e-08 5.3153784e-09 -7.4710655e-09 -3.191648e-08
000370 82 5e 64 b3 22 03 66 b3 90 ca 5c b3 4e 6e 4d b3
       -5.317134e-08 -5.3553897e-08 -5.140697e-08 -4.7830603e-08
000380 86 68 0d b3 94 fd 4a b3 5a 45 a1 b3 02 3e ce b3
       -3.2924184e-08 -4.7262418e-08 -7.509762e-08 -9.603902e-08
000390 29 8d cb b3 ed 2d ba b3 2c 31 9f b3 38 fc 3f b2
       -9.478601e-08 -8.669654e-08 -7.412959e-08 -1.1175011e-08
0003a0 7c 69 02 b3 9e 19 79 b3 47 6f a6 b3 0e 4b 9a b3
       -3.036392e-08 -5.799813e-08 -7.7502186e-08 -7.184836e-08
0003b0 b5 1f 80 b3 70 79 3d b3 02 86 93 33 66 f0 42 33
       -5.966232e-08 -4.411544e-08 6.869597e-08 4.5387786e-08
0003c0 d4 d2 83 32 00 17 02 b0 b8 50 28 32 0c 23 b0 32
       1.534628e-08 -4.732641e-10 9.79724e-09 2.0505034e-08
0003d0 9a fe 4e 33 2a 1e 96 b4 d4 00 99 b4 03 d7 a0 b4
       4.819467e-08 -2.7961624e-07 -2.8499073e-07 -2.9958764e-07
0003e0 f4 e2 ae b4 d2 60 b6 b4 87 38 bc b4 77 b9 c1 b4
       -3.2575156e-07 -3.3970588e-07 -3.5058858e-07 -3.6083995e-07
0003f0 39 6c fe b4 4e 7a fc b4 63 b2 02 b5 1f 5e 0b b5
       -4.738993e-07 -4.7027646e-07 -4.868836e-07 -5.19185e-07

conv1.bias f4 [10]
000000 0e 15 17 b1 cd cc 5b b3 02 19 32 36 52 df ed 35
       -2.198536e-09 -5.1176176e-08 2.6538623e-06 1.7722871e-06
000010 7a 06 1c b7 c1 5d 9b b0 07 a9 59 b6 7c 89 99 3b
       -9.2998325e-06 -1.1304381e-09 -3.2433907e-06 0.004685579
000020 8c ee ee 37 fe cf d3 39
       2.8482893e-05 0.00040400022

conv2.weight f4 [10, 10, 7, 7]
000000 a8 ca db 3b e8 e8 28 3c 4c af 0c 3c 1e 0c 44 3c
       0.006707508 0.010309435 0.008586716 0.01196578
000010 0f 19 27 3c da ef ab 3b 6c 99 e1 3b e6 1e 00 3c
       0.0101988455 0.0052470984 0.0068847444 0.007819867
000020 e1 46 3a 3c 91 2f 25 3c c0 a2 47 3c 52 b8 16 3c
       0.011369438 0.0100821415 0.012184799 0.009199219
000030 94 bf cf 3b fe 45 26 3c 69 19 5a 3c d5 42 31 3c
       0.0063399766 0.010148523 0.013311722 0.010819157
000040 2f 7f f2 3b c3 8b 00 3c 15 a0 12 3c 1b 1e 0e 3c
       0.0074004154 0.007845822 0.008949299 0.00867417
000050 a4 73 f5 3b 33 68 06 3c ae a6 25 3c e8 a7 00 3c
       0.007490592 0.008203554 0.01011054 0.007852532
000060 b6 07 58 3c 6b d0 cc 3b 1a 31 47 3c 87 ad 3c 3c
       0.013185432 0.0062504313 0.012157703 0.0115159815
000070 bd ad 54 3c d2 6d f7 3b 28 b6 2c 3c 00 19 27 3c
       0.012980876 0.0075509334 0.010541476 0.010198832
000080 d1 9b 05 3c 88 23 13 3c 78 87 2c 3c c3 97 4d 3c
       0.008154825 0.008980639 0.010530345 0.01254839
000090 7b 0d f3 3b fd e6 10 3c 0d 5f 01 3c e6 e4 cd 3b
       0.0074173785 0.008844134 0.007896197 0.0062833903
0000a0 5d 46 44 3c de 57 42 3c ba 98 fe 3b 15 51 39 3c
       0.011979667 0.0118617695 0.0077696713 0.011310835
0000b0 93 f0 30 3c f3 74 14 3c a1 dd 46 3c 0d 81 27 3c
       0.010799545 0.009061086 0.012137801 0.010223639
0000c0 b4 f9 b6 3b 95 96 b9 b1 d0 72 bb b1 fb c7 c1 b1
       0.005583966 -5.401328e-09 -5.455469e-09 -5.6397744e-09
0000d0 62 5f 87 b1 96 eb 2e b1 80 bb 50 2f 8a 65 4e 31
       -3.939861e-09 -2.5454248e-09 1.8984103e-10 3.0034664e-09
0000e0 2c 75 cf b1 56 c2 9a b1 9e 46 b6 b1 a1 a2 91 b1
       -6.037814e-09 -4.5040833e-09 -5.3049254e-09 -4.238544e-09
0000f0 a7 52 f0 b0 25 ed cd 30 9e 86 9a 31 d4 c7 73 b1
       -1.748579e-09 1.4983114e-09 4.497294e-09 -3.5474743e-09
000100 a0 de 4e b1 6c f9 30 b1 92 d8 64 b1 b0 ff 49 af
       -3.0103493e-09 -2.575315e-09 -3.3301473e-09 -1.8371682e-10
000110 6f 59 14 31 a2 d9 a6 31 5e a8 75 b1 60 3a 69 b1
       2.1587672e-09 4.855978e-09 -3.5747898e-09 -3.3939145e-09
000120 18 51 82 b1 47 7a 72 b1 8e 8a 09 b0 32 2b 16 31
       -3.7927173e-09 -3.5285141e-09 -5.003721e-10 2.1852427e-09
000130 27 fa a1 31 03 32 99 b1 35 56 a6 b1 16 31 49 b1
       4.7141557e-09 -4.4585717e-09 -4.8410365e-09 -2.9277252e-09
000140 98 a7 7a b1 e1 2e 9b b0 7f 47 f0 30 2f 3c 90 31
       -3.6475054e-09 -1.1291058e-09 1.7482619e-09 4.1977937e-09
000150 a3 a2 ab b1 9b 4a b1 b1 ba c9 74 b1 b6 32 5d b1
       -4.9952447e-09 -5.1598597e-09 -3.5621341e-09 -3.2188558e-09
000160 b8 ac 06 b1 88 ed f1 2f ec 1f 4d 31 6e 2a ef b1
       -1.9597746e-09 4.400642e-10 2.9849572e-09 -6.960639e-09
000170 09 9a c4 b1 96 d2 d8 b1 63 42 be b1 54 6e 6e b1
       -5.7218625e-09 -6.3103682e-09 -5.537275e-09 -3.4696273e-09
000180 d2 b5 c3 b0 b5 be df 30 e6 ee cc 36 fa ce ce 36
       -1.4239794e-09 1.6279588e-09 6.107485e-06 6.1633737e-06
000190 cd b9 c3 36 05 aa a7 36 aa f3 90 36 2c c7 83 36
       5.833083e-06 4.9967807e-06 4.3199007e-06 3.927291e-06
0001a0 b5 86 89 36 28 16 cf 36 82 82 cc 36 0d 67 b9 36
       4.0986e-06 6.17166e-06 6.094867e-06 5.5254263e-06
0001b0 04 a9 94 36 20 ca 73 36 b7 95 46 36 10 2f 58 36
       4.4304197e-06 3.6327474e-06 2.9591445e-06 3.2213902e-06
0001c0 05 bc cb 36 06 48 c7 36 4d ba b0 36 4b 57 8f 36
       6.07176e-06 5.939047e-06 5.266897e-06 4.2718943e-06
0001d0 7b f6 5a 36 3a b4 27 36 b2 55 2b 36 26 42 c7 36
       3.2628002e-06 2.4989845e-06 2.5530867e-06 5.938363e-06
0001e0 c0 50 c4 36 d3 5e af 36 03 8a 93 36 7e fb 5b 36
       5.8506557e-06 5.2264454e-06 4.397008e-06 3.277993e-06
0001f0 dd a5 1c 36 9b 97 29 36 0a 29 c4 36 fe 54 c1 36
       2.3342357e-06 2.5271208e-06 5.8460328e-06 5.7617426e-06
000200 5a ea b2 36 db 1f 9b 36 a6 d3 7c 36 73 32 33 36
       5.3320955e-06 4.6230684e-06 3.7674122e-06 2.6702444e-06
000210 dc 32 40 36 30 1e c4 36 26 56 c2 36 cc 49 ba 36
       2.8639834e-06 5.8447695e-06 5.7916795e-06 5.551823e-06
000220 3a e6 ab 36 8e 53 94 36 ed 1a 63 36 8a ea 77 36
       5.122999e-06 4.4204708e-06 3.3841309e-06 3.6942388e-06
000230 d1 27 c5 36 50 17 c5 36 a2 57 c2 36 8c 50 bb 36
       5.8756928e-06 5.8737714e-06 5.7918523e-06 5.582411e-06
000240 c9 cb aa 36 e5 e3 96 36 52 54 9d 36 51 07 2e b3
       5.0901185e-06 4.496879e-06 4.688781e-06 -4.0519186e-08
000250 1f 90 54 33 e6 72 70 b3 37 88 33 33 9a c5 e3 32
       4.9491174e-08 -5.5983854e-08 4.1800572e-08 2.6516137e-08
000260 f2 44 67 33 7f 67 a8 33 c0 2a 16 b2 44 0c de 31
       5.3846584e-08 7.8419355e-08 -8.740869e-09 6.462445e-09
000270 99 0b 94 b3 b5 25 5b 33 cf 4d 36 32 89 69 15 b3
       -6.893897e-08 5.1024205e-08 1.0611486e-08 -3.478775e-08
000280 0d 0c 82 33 56 13 4e 33 40 9a 2f 33 f3 5a 10 33
       6.055789e-08 4.79807e-08 4.0885652e-08 3.361033e-08
000290 af 24 6c 33 a3 2d 49 b0 98 5d 9b b0 86 44 be b2
       5.4981395e-08 -7.318823e-10 -1.1304335e-09 -2.2150072e-08
0002a0 74 0f 1c b1 54 4c f5 31 4d 47 f0 32 82 b9 3e 33
       -2.2709772e-09 7.139116e-09 2.7972101e-08 4.440654e-08
0002b0 30 ff 56 b1 82 6e 62 32 15 3a 0c b3 32 13 d3 30
       -3.1286156e-09 1.3180058e-08 -3.2649115e-08 1.5357726e-09
0002c0 0c 5e 2f 33 36 19 28 b3 3b fa 21 b2 a9 23 a3 b2
       4.0830898e-08 -3.9138477e-08 -9.428329e-09 -1.8991914e-08
0002d0 96 c1 24 b2 fa cb 80 32 c4 fa 9d b2 6e ee 93 b2
       -9.590073e-09 1.4993919e-08 -1.839124e-08 -1.7221478e-08
0002e0 8e e2 00 33 20 61 33 b3 dc ad 02 b1 7b 86 49 32
       3.0008373e-08 -4.176502e-08 -1.9016317e-09 1.1730317e-08
0002f0 9d 30 02 33 e4 8c 86 31 2c 48 11 b2 9e 51 92 b2
       3.0312197e-08 3.9159307e-09 -8.456521e-09 -1.7033752e-08
000300 9d 45 02 33 a0 81 95 b2 99 4f bc b2 96 d4 8c 32
       3.0331297e-08 -1.740483e-08 -2.1922277e-08 1.6394818e-08
000310 66 81 88 be dc c4 88 be 40 fe 88 be 60 25 89 be
       -0.26661223 -0.26712692 -0.26756477 -0.26786327
000320 f5 29 89 be 46 24 89 be ad 0e 89 be ab d2 88 be
       -0.26789823 -0.26785487 -0.2676901 -0.26723227
000330 7d 1b 89 be 9d 50 89 be d9 79 89 be 70 80 89 be
       -0.26778784 -0.26819316 -0.26850775 -0.26855803
000340 ab 79 89 be ff 62 89 be db c7 88 be 76 09 89 be
       -0.26850638 -0.2683334 -0.26714978 -0.2676503
000350 39 3f 89 be 11 66 89 be a1 6d 89 be 3d 69 89 be
       -0.26806048 -0.26835683 -0.26841453 -0.26838103
000360 7f 54 89 be 33 52 88 be 78 91 88 be 60 c4 88 be
       -0.26822278 -0.26625213 -0.26673484 -0.26712322
000370 ce e7 88 be eb f0 88 be 56 ee 88 be eb da 88 be
       -0.26739353 -0.26746306 -0.26744336 -0.2672952
000380 87 92 87 be c8 cb 87 be 11 f9 87 be 72 1c 88 be
       -0.2647898 -0.2652266 -0.2655721 -0.26584202
000390 83 26 88 be 51 26 88 be c8 14 88 be e5 87 86 be
       -0.26591882 -0.26591733 -0.26578355 -0.26275554
0003a0 82 bd 86 be 10 e9 86 be 51 04 87 be 98 0e 87 be
       -0.26316458 -0.26349688 -0.2637048 -0.26378322
0003b0 e2 0f 87 be 24 05 87 be 52 4e 85 be c7 7f 85 be
       -0.26379305 -0.2637111 -0.26036316 -0.2607405
0003c0 94 a8 85 be aa c6 85 be a7 ce 85 be 53 cb 85 be
       -0.26105177 -0.2612813 -0.26134226 -0.26131687
0003d0 2f c3 85 be 01 1c 55 b2 cb a2 21 b2 f0 7b 0c b2
       -0.26125476 -1.2404599e-08 -9.408448e-09 -8.177253e-09
0003e0 5e a1 ec b1 88 2a 83 b1 d8 95 a1 b1 b6 0f a3 b1
       -6.8868493e-09 -3.817437e-09 -4.702752e-09 -4.7457105e-09
0003f0 a5 78 0e b1 53 d1 5c 31 20 83 ce 31 a4 b8 0e 32
       -2.0732298e-09 3.21332e-09 6.0102963e-09 8.30747e-09

conv2.bias f4 [10]
000000 cb 9d 4c bd fc d1 6f bd e2 59 a2 b9 76 1a 33 39
       -0.04995517 -0.058549866 -0.00030966016 0.00017080628
000010 38 91 cf 35 20 be 1d 34 23 07 a8 b7 94 75 3f b4
       1.5464966e-06 1.4690931e-07 -2.0030484e-05 -1.7831036e-07
000020 68 21 09 38 71 e4 8c b3
       3.2694457e-05 -6.560811e-08

conv3.weight f4 [1, 10, 1, 1]
000000 98 83 3d be ac f6 d3 3d d0 5e 27 bf 04 97 a7 be
       -0.1850723 0.10349783 -0.6537905 -0.32732403
000010 59 68 14 3e 7c 81 0a bd f0 91 ca 3e 91 0b e7 3d
       0.1449293 -0.033814892 0.39564466 0.11281503
000020 d5 68 92 3e fc 40 8b be
       0.28595605 -0.27198017
